…
no change     /u/aananth2/miniconda3/etc/profile.d/conda.sh
no change     /u/aananth2/miniconda3/etc/fish/conf.d/conda.fish
no change     /u/aananth2/miniconda3/shell/condabin/Conda.psm1
no change     /u/aananth2/miniconda3/shell/condabin/conda-hook.ps1
no change     /u/aananth2/miniconda3/lib/python3.12/site-packages/xontrib/conda.xsh
no change     /u/aananth2/miniconda3/etc/profile.d/conda.csh
no change     /u/aananth2/.bashrc
No action taken.
Files already downloaded and verified
Files already downloaded and verified
Files already downloaded and verified
WideResNet(
  (f): Sequential(
    (0_convolution): Conv2d(3, 16, kernel_size=(3, 3), stride=(1, 1), padding=(1, 1), bias=False)
    (1_block): Block(
      (block): Sequential(
        (0): DownsampleUnit(
          (norm_act): Sequential(
            (0_normalization): BatchNorm2d(16, eps=1e-05, momentum=0.1, affine=True, track_running_stats=True)
            (1_activation): ReLU(inplace=True)
          )
          (block): Sequential(
            (0_convolution): Conv2d(16, 160, kernel_size=(3, 3), stride=(1, 1), padding=(1, 1), bias=False)
            (1_normalization): BatchNorm2d(160, eps=1e-05, momentum=0.1, affine=True, track_running_stats=True)
            (2_activation): ReLU(inplace=True)
            (3_dropout): Dropout(p=0.0, inplace=True)
            (4_convolution): Conv2d(160, 160, kernel_size=(3, 3), stride=(1, 1), padding=(1, 1), bias=False)
          )
          (downsample): Conv2d(16, 160, kernel_size=(1, 1), stride=(1, 1), bias=False)
        )
        (1): BasicUnit(
          (block): Sequential(
            (0_normalization): BatchNorm2d(160, eps=1e-05, momentum=0.1, affine=True, track_running_stats=True)
            (1_activation): ReLU(inplace=True)
            (2_convolution): Conv2d(160, 160, kernel_size=(3, 3), stride=(1, 1), padding=(1, 1), bias=False)
            (3_normalization): BatchNorm2d(160, eps=1e-05, momentum=0.1, affine=True, track_running_stats=True)
            (4_activation): ReLU(inplace=True)
            (5_dropout): Dropout(p=0.0, inplace=True)
            (6_convolution): Conv2d(160, 160, kernel_size=(3, 3), stride=(1, 1), padding=(1, 1), bias=False)
          )
        )
        (2): BasicUnit(
          (block): Sequential(
            (0_normalization): BatchNorm2d(160, eps=1e-05, momentum=0.1, affine=True, track_running_stats=True)
            (1_activation): ReLU(inplace=True)
            (2_convolution): Conv2d(160, 160, kernel_size=(3, 3), stride=(1, 1), padding=(1, 1), bias=False)
            (3_normalization): BatchNorm2d(160, eps=1e-05, momentum=0.1, affine=True, track_running_stats=True)
            (4_activation): ReLU(inplace=True)
            (5_dropout): Dropout(p=0.0, inplace=True)
            (6_convolution): Conv2d(160, 160, kernel_size=(3, 3), stride=(1, 1), padding=(1, 1), bias=False)
          )
        )
        (3): BasicUnit(
          (block): Sequential(
            (0_normalization): BatchNorm2d(160, eps=1e-05, momentum=0.1, affine=True, track_running_stats=True)
            (1_activation): ReLU(inplace=True)
            (2_convolution): Conv2d(160, 160, kernel_size=(3, 3), stride=(1, 1), padding=(1, 1), bias=False)
            (3_normalization): BatchNorm2d(160, eps=1e-05, momentum=0.1, affine=True, track_running_stats=True)
            (4_activation): ReLU(inplace=True)
            (5_dropout): Dropout(p=0.0, inplace=True)
            (6_convolution): Conv2d(160, 160, kernel_size=(3, 3), stride=(1, 1), padding=(1, 1), bias=False)
          )
        )
        (4): BasicUnit(
          (block): Sequential(
            (0_normalization): BatchNorm2d(160, eps=1e-05, momentum=0.1, affine=True, track_running_stats=True)
            (1_activation): ReLU(inplace=True)
            (2_convolution): Conv2d(160, 160, kernel_size=(3, 3), stride=(1, 1), padding=(1, 1), bias=False)
            (3_normalization): BatchNorm2d(160, eps=1e-05, momentum=0.1, affine=True, track_running_stats=True)
            (4_activation): ReLU(inplace=True)
            (5_dropout): Dropout(p=0.0, inplace=True)
            (6_convolution): Conv2d(160, 160, kernel_size=(3, 3), stride=(1, 1), padding=(1, 1), bias=False)
          )
        )
      )
    )
    (2_block): Block(
      (block): Sequential(
        (0): DownsampleUnit(
          (norm_act): Sequential(
            (0_normalization): BatchNorm2d(160, eps=1e-05, momentum=0.1, affine=True, track_running_stats=True)
            (1_activation): ReLU(inplace=True)
          )
          (block): Sequential(
            (0_convolution): Conv2d(160, 320, kernel_size=(3, 3), stride=(2, 2), padding=(1, 1), bias=False)
            (1_normalization): BatchNorm2d(320, eps=1e-05, momentum=0.1, affine=True, track_running_stats=True)
            (2_activation): ReLU(inplace=True)
            (3_dropout): Dropout(p=0.0, inplace=True)
            (4_convolution): Conv2d(320, 320, kernel_size=(3, 3), stride=(1, 1), padding=(1, 1), bias=False)
          )
          (downsample): Conv2d(160, 320, kernel_size=(1, 1), stride=(2, 2), bias=False)
        )
        (1): BasicUnit(
          (block): Sequential(
            (0_normalization): BatchNorm2d(320, eps=1e-05, momentum=0.1, affine=True, track_running_stats=True)
            (1_activation): ReLU(inplace=True)
            (2_convolution): Conv2d(320, 320, kernel_size=(3, 3), stride=(1, 1), padding=(1, 1), bias=False)
            (3_normalization): BatchNorm2d(320, eps=1e-05, momentum=0.1, affine=True, track_running_stats=True)
            (4_activation): ReLU(inplace=True)
            (5_dropout): Dropout(p=0.0, inplace=True)
            (6_convolution): Conv2d(320, 320, kernel_size=(3, 3), stride=(1, 1), padding=(1, 1), bias=False)
          )
        )
        (2): BasicUnit(
          (block): Sequential(
            (0_normalization): BatchNorm2d(320, eps=1e-05, momentum=0.1, affine=True, track_running_stats=True)
            (1_activation): ReLU(inplace=True)
            (2_convolution): Conv2d(320, 320, kernel_size=(3, 3), stride=(1, 1), padding=(1, 1), bias=False)
            (3_normalization): BatchNorm2d(320, eps=1e-05, momentum=0.1, affine=True, track_running_stats=True)
            (4_activation): ReLU(inplace=True)
            (5_dropout): Dropout(p=0.0, inplace=True)
            (6_convolution): Conv2d(320, 320, kernel_size=(3, 3), stride=(1, 1), padding=(1, 1), bias=False)
          )
        )
        (3): BasicUnit(
          (block): Sequential(
            (0_normalization): BatchNorm2d(320, eps=1e-05, momentum=0.1, affine=True, track_running_stats=True)
            (1_activation): ReLU(inplace=True)
            (2_convolution): Conv2d(320, 320, kernel_size=(3, 3), stride=(1, 1), padding=(1, 1), bias=False)
            (3_normalization): BatchNorm2d(320, eps=1e-05, momentum=0.1, affine=True, track_running_stats=True)
            (4_activation): ReLU(inplace=True)
            (5_dropout): Dropout(p=0.0, inplace=True)
            (6_convolution): Conv2d(320, 320, kernel_size=(3, 3), stride=(1, 1), padding=(1, 1), bias=False)
          )
        )
        (4): BasicUnit(
          (block): Sequential(
            (0_normalization): BatchNorm2d(320, eps=1e-05, momentum=0.1, affine=True, track_running_stats=True)
            (1_activation): ReLU(inplace=True)
            (2_convolution): Conv2d(320, 320, kernel_size=(3, 3), stride=(1, 1), padding=(1, 1), bias=False)
            (3_normalization): BatchNorm2d(320, eps=1e-05, momentum=0.1, affine=True, track_running_stats=True)
            (4_activation): ReLU(inplace=True)
            (5_dropout): Dropout(p=0.0, inplace=True)
            (6_convolution): Conv2d(320, 320, kernel_size=(3, 3), stride=(1, 1), padding=(1, 1), bias=False)
          )
        )
      )
    )
    (3_block): Block(
      (block): Sequential(
        (0): DownsampleUnit(
          (norm_act): Sequential(
            (0_normalization): BatchNorm2d(320, eps=1e-05, momentum=0.1, affine=True, track_running_stats=True)
            (1_activation): ReLU(inplace=True)
          )
          (block): Sequential(
            (0_convolution): Conv2d(320, 640, kernel_size=(3, 3), stride=(2, 2), padding=(1, 1), bias=False)
            (1_normalization): BatchNorm2d(640, eps=1e-05, momentum=0.1, affine=True, track_running_stats=True)
            (2_activation): ReLU(inplace=True)
            (3_dropout): Dropout(p=0.0, inplace=True)
            (4_convolution): Conv2d(640, 640, kernel_size=(3, 3), stride=(1, 1), padding=(1, 1), bias=False)
          )
          (downsample): Conv2d(320, 640, kernel_size=(1, 1), stride=(2, 2), bias=False)
        )
        (1): BasicUnit(
          (block): Sequential(
            (0_normalization): BatchNorm2d(640, eps=1e-05, momentum=0.1, affine=True, track_running_stats=True)
            (1_activation): ReLU(inplace=True)
            (2_convolution): Conv2d(640, 640, kernel_size=(3, 3), stride=(1, 1), padding=(1, 1), bias=False)
            (3_normalization): BatchNorm2d(640, eps=1e-05, momentum=0.1, affine=True, track_running_stats=True)
            (4_activation): ReLU(inplace=True)
            (5_dropout): Dropout(p=0.0, inplace=True)
            (6_convolution): Conv2d(640, 640, kernel_size=(3, 3), stride=(1, 1), padding=(1, 1), bias=False)
          )
        )
        (2): BasicUnit(
          (block): Sequential(
            (0_normalization): BatchNorm2d(640, eps=1e-05, momentum=0.1, affine=True, track_running_stats=True)
            (1_activation): ReLU(inplace=True)
            (2_convolution): Conv2d(640, 640, kernel_size=(3, 3), stride=(1, 1), padding=(1, 1), bias=False)
            (3_normalization): BatchNorm2d(640, eps=1e-05, momentum=0.1, affine=True, track_running_stats=True)
            (4_activation): ReLU(inplace=True)
            (5_dropout): Dropout(p=0.0, inplace=True)
            (6_convolution): Conv2d(640, 640, kernel_size=(3, 3), stride=(1, 1), padding=(1, 1), bias=False)
          )
        )
        (3): BasicUnit(
          (block): Sequential(
            (0_normalization): BatchNorm2d(640, eps=1e-05, momentum=0.1, affine=True, track_running_stats=True)
            (1_activation): ReLU(inplace=True)
            (2_convolution): Conv2d(640, 640, kernel_size=(3, 3), stride=(1, 1), padding=(1, 1), bias=False)
            (3_normalization): BatchNorm2d(640, eps=1e-05, momentum=0.1, affine=True, track_running_stats=True)
            (4_activation): ReLU(inplace=True)
            (5_dropout): Dropout(p=0.0, inplace=True)
            (6_convolution): Conv2d(640, 640, kernel_size=(3, 3), stride=(1, 1), padding=(1, 1), bias=False)
          )
        )
        (4): BasicUnit(
          (block): Sequential(
            (0_normalization): BatchNorm2d(640, eps=1e-05, momentum=0.1, affine=True, track_running_stats=True)
            (1_activation): ReLU(inplace=True)
            (2_convolution): Conv2d(640, 640, kernel_size=(3, 3), stride=(1, 1), padding=(1, 1), bias=False)
            (3_normalization): BatchNorm2d(640, eps=1e-05, momentum=0.1, affine=True, track_running_stats=True)
            (4_activation): ReLU(inplace=True)
            (5_dropout): Dropout(p=0.0, inplace=True)
            (6_convolution): Conv2d(640, 640, kernel_size=(3, 3), stride=(1, 1), padding=(1, 1), bias=False)
          )
        )
      )
    )
    (4_normalization): BatchNorm2d(640, eps=1e-05, momentum=0.1, affine=True, track_running_stats=True)
    (5_activation): ReLU(inplace=True)
    (6_pooling): AvgPool2d(kernel_size=8, stride=8, padding=0)
    (7_flattening): Flatten(start_dim=1, end_dim=-1)
    (8_classification): Linear(in_features=640, out_features=10, bias=True)
  )
)
<data.cifar10.Cifar10 object at 0x7fb074901400>
sam
┏━━━━━━━━━━━━━━┳━━━━━━━╸T╺╸R╺╸A╺╸I╺╸N╺━━━━━━━┳━━━━━━━╸S╺╸T╺╸A╺╸T╺╸S╺━━━━━━━┳━━━━━━━╸V╺╸A╺╸L╺╸I╺╸D╺━━━━━━━┓
┃              ┃              ╷              ┃              ╷              ┃              ╷              ┃
┃       epoch  ┃        loss  │    accuracy  ┃        l.r.  │     elapsed  ┃        loss  │    accuracy  ┃
…
